…
wandb: Run `wandb offline` to turn off syncing.
wandb: Syncing run switch-samsum-base16-run
wandb: ⭐️ View project at https://wandb.ai/isnlp_lab/samsum-google-switch-base-16
wandb: 🚀 View run at https://wandb.ai/isnlp_lab/samsum-google-switch-base-16/runs/gemd84h6
DatasetDict({
    train: Dataset({
        features: ['id', 'dialogue', 'summary'],
        num_rows: 14732
    })
    test: Dataset({
        features: ['id', 'dialogue', 'summary'],
        num_rows: 819
    })
    validation: Dataset({
        features: ['id', 'dialogue', 'summary'],
        num_rows: 818
    })
})
SwitchTransformersForConditionalGeneration(
  (shared): Embedding(32128, 768)
  (encoder): SwitchTransformersStack(
    (embed_tokens): Embedding(32128, 768)
    (block): ModuleList(
      (0): SwitchTransformersBlock(
        (layer): ModuleList(
          (0): SwitchTransformersLayerSelfAttention(
            (SelfAttention): SwitchTransformersAttention(
              (q): Linear(in_features=768, out_features=768, bias=False)
              (k): Linear(in_features=768, out_features=768, bias=False)
              (v): Linear(in_features=768, out_features=768, bias=False)
              (o): Linear(in_features=768, out_features=768, bias=False)
              (relative_attention_bias): Embedding(32, 12)
            )
            (layer_norm): SwitchTransformersLayerNorm()
            (dropout): Dropout(p=0.1, inplace=False)
          )
          (1): SwitchTransformersLayerFF(
            (mlp): SwitchTransformersDenseActDense(
              (wi): Linear(in_features=768, out_features=3072, bias=False)
              (wo): Linear(in_features=3072, out_features=768, bias=False)
              (dropout): Dropout(p=0.1, inplace=False)
              (act): ReLU()
            )
            (layer_norm): SwitchTransformersLayerNorm()
            (dropout): Dropout(p=0.1, inplace=False)
          )
        )
      )
      (1): SwitchTransformersBlock(
        (layer): ModuleList(
          (0): SwitchTransformersLayerSelfAttention(
            (SelfAttention): SwitchTransformersAttention(
              (q): Linear(in_features=768, out_features=768, bias=False)
              (k): Linear(in_features=768, out_features=768, bias=False)
              (v): Linear(in_features=768, out_features=768, bias=False)
              (o): Linear(in_features=768, out_features=768, bias=False)
            )
            (layer_norm): SwitchTransformersLayerNorm()
            (dropout): Dropout(p=0.1, inplace=False)
          )
          (1): SwitchTransformersLayerFF(
            (mlp): SwitchTransformersSparseMLP(
              (router): SwitchTransformersTop1Router(
                (classifier): Linear(in_features=768, out_features=16, bias=False)
              )
              (experts): ModuleDict(
                (expert_0): SwitchTransformersDenseActDense(
                  (wi): Linear(in_features=768, out_features=3072, bias=False)
                  (wo): Linear(in_features=3072, out_features=768, bias=False)
                  (dropout): Dropout(p=0.1, inplace=False)
                  (act): ReLU()
                )
                (expert_1): SwitchTransformersDenseActDense(
                  (wi): Linear(in_features=768, out_features=3072, bias=False)
                  (wo): Linear(in_features=3072, out_features=768, bias=False)
                  (dropout): Dropout(p=0.1, inplace=False)
                  (act): ReLU()
                )
                (expert_2): SwitchTransformersDenseActDense(
                  (wi): Linear(in_features=768, out_features=3072, bias=False)
                  (wo): Linear(in_features=3072, out_features=768, bias=False)
                  (dropout): Dropout(p=0.1, inplace=False)
                  (act): ReLU()
                )
                (expert_3): SwitchTransformersDenseActDense(
                  (wi): Linear(in_features=768, out_features=3072, bias=False)
                  (wo): Linear(in_features=3072, out_features=768, bias=False)
                  (dropout): Dropout(p=0.1, inplace=False)
                  (act): ReLU()
                )
                (expert_4): SwitchTransformersDenseActDense(
                  (wi): Linear(in_features=768, out_features=3072, bias=False)
                  (wo): Linear(in_features=3072, out_features=768, bias=False)
                  (dropout): Dropout(p=0.1, inplace=False)
                  (act): ReLU()
                )
                (expert_5): SwitchTransformersDenseActDense(
                  (wi): Linear(in_features=768, out_features=3072, bias=False)
                  (wo): Linear(in_features=3072, out_features=768, bias=False)
                  (dropout): Dropout(p=0.1, inplace=False)
                  (act): ReLU()
                )
                (expert_6): SwitchTransformersDenseActDense(
                  (wi): Linear(in_features=768, out_features=3072, bias=False)
                  (wo): Linear(in_features=3072, out_features=768, bias=False)
                  (dropout): Dropout(p=0.1, inplace=False)
                  (act): ReLU()
                )
                (expert_7): SwitchTransformersDenseActDense(
                  (wi): Linear(in_features=768, out_features=3072, bias=False)
                  (wo): Linear(in_features=3072, out_features=768, bias=False)
                  (dropout): Dropout(p=0.1, inplace=False)
                  (act): ReLU()
                )
                (expert_8): SwitchTransformersDenseActDense(
                  (wi): Linear(in_features=768, out_features=3072, bias=False)
                  (wo): Linear(in_features=3072, out_features=768, bias=False)
                  (dropout): Dropout(p=0.1, inplace=False)
                  (act): ReLU()
                )
                (expert_9): SwitchTransformersDenseActDense(
                  (wi): Linear(in_features=768, out_features=3072, bias=False)
                  (wo): Linear(in_features=3072, out_features=768, bias=False)
                  (dropout): Dropout(p=0.1, inplace=False)
                  (act): ReLU()
                )
                (expert_10): SwitchTransformersDenseActDense(
                  (wi): Linear(in_features=768, out_features=3072, bias=False)
                  (wo): Linear(in_features=3072, out_features=768, bias=False)
                  (dropout): Dropout(p=0.1, inplace=False)
                  (act): ReLU()
                )
                (expert_11): SwitchTransformersDenseActDense(
                  (wi): Linear(in_features=768, out_features=3072, bias=False)
                  (wo): Linear(in_features=3072, out_features=768, bias=False)
                  (dropout): Dropout(p=0.1, inplace=False)
                  (act): ReLU()
                )
                (expert_12): SwitchTransformersDenseActDense(
                  (wi): Linear(in_features=768, out_features=3072, bias=False)
                  (wo): Linear(in_features=3072, out_features=768, bias=False)
                  (dropout): Dropout(p=0.1, inplace=False)
                  (act): ReLU()
                )
                (expert_13): SwitchTransformersDenseActDense(
                  (wi): Linear(in_features=768, out_features=3072, bias=False)
                  (wo): Linear(in_features=3072, out_features=768, bias=False)
                  (dropout): Dropout(p=0.1, inplace=False)
                  (act): ReLU()
                )
                (expert_14): SwitchTransformersDenseActDense(
                  (wi): Linear(in_features=768, out_features=3072, bias=False)
                  (wo): Linear(in_features=3072, out_features=768, bias=False)
                  (dropout): Dropout(p=0.1, inplace=False)
                  (act): ReLU()
                )
                (expert_15): SwitchTransformersDenseActDense(
                  (wi): Linear(in_features=768, out_features=3072, bias=False)
                  (wo): Linear(in_features=3072, out_features=768, bias=False)
                  (dropout): Dropout(p=0.1, inplace=False)
                  (act): ReLU()
                )
              )
            )
            (layer_norm): SwitchTransformersLayerNorm()
            (dropout): Dropout(p=0.1, inplace=False)
          )
        )
      )
      (2): SwitchTransformersBlock(
        (layer): ModuleList(
          (0): SwitchTransformersLayerSelfAttention(
            (SelfAttention): SwitchTransformersAttention(
              (q): Linear(in_features=768, out_features=768, bias=False)
              (k): Linear(in_features=768, out_features=768, bias=False)
              (v): Linear(in_features=768, out_features=768, bias=False)
              (o): Linear(in_features=768, out_features=768, bias=False)
            )
            (layer_norm): SwitchTransformersLayerNorm()
            (dropout): Dropout(p=0.1, inplace=False)
          )
          (1): SwitchTransformersLayerFF(
            (mlp): SwitchTransformersDenseActDense(
              (wi): Linear(in_features=768, out_features=3072, bias=False)
              (wo): Linear(in_features=3072, out_features=768, bias=False)
              (dropout): Dropout(p=0.1, inplace=False)
              (act): ReLU()
            )
            (layer_norm): SwitchTransformersLayerNorm()
            (dropout): Dropout(p=0.1, inplace=False)
          )
        )
      )
      (3): SwitchTransformersBlock(
        (layer): ModuleList(
          (0): SwitchTransformersLayerSelfAttention(
            (SelfAttention): SwitchTransformersAttention(
              (q): Linear(in_features=768, out_features=768, bias=False)
              (k): Linear(in_features=768, out_features=768, bias=False)
              (v): Linear(in_features=768, out_features=768, bias=False)
              (o): Linear(in_features=768, out_features=768, bias=False)
            )
            (layer_norm): SwitchTransformersLayerNorm()
            (dropout): Dropout(p=0.1, inplace=False)
          )
          (1): SwitchTransformersLayerFF(
            (mlp): SwitchTransformersSparseMLP(
              (router): SwitchTransformersTop1Router(
                (classifier): Linear(in_features=768, out_features=16, bias=False)
              )
              (experts): ModuleDict(
                (expert_0): SwitchTransformersDenseActDense(
                  (wi): Linear(in_features=768, out_features=3072, bias=False)
                  (wo): Linear(in_features=3072, out_features=768, bias=False)
                  (dropout): Dropout(p=0.1, inplace=False)
                  (act): ReLU()
                )
                (expert_1): SwitchTransformersDenseActDense(
                  (wi): Linear(in_features=768, out_features=3072, bias=False)
                  (wo): Linear(in_features=3072, out_features=768, bias=False)
                  (dropout): Dropout(p=0.1, inplace=False)
                  (act): ReLU()
                )
                (expert_2): SwitchTransformersDenseActDense(
                  (wi): Linear(in_features=768, out_features=3072, bias=False)
                  (wo): Linear(in_features=3072, out_features=768, bias=False)
                  (dropout): Dropout(p=0.1, inplace=False)
                  (act): ReLU()
                )
                (expert_3): SwitchTransformersDenseActDense(
                  (wi): Linear(in_features=768, out_features=3072, bias=False)
                  (wo): Linear(in_features=3072, out_features=768, bias=False)
                  (dropout): Dropout(p=0.1, inplace=False)
                  (act): ReLU()
                )
                (expert_4): SwitchTransformersDenseActDense(
                  (wi): Linear(in_features=768, out_features=3072, bias=False)
                  (wo): Linear(in_features=3072, out_features=768, bias=False)
                  (dropout): Dropout(p=0.1, inplace=False)
                  (act): ReLU()
                )
                (expert_5): SwitchTransformersDenseActDense(
                  (wi): Linear(in_features=768, out_features=3072, bias=False)
                  (wo): Linear(in_features=3072, out_features=768, bias=False)
                  (dropout): Dropout(p=0.1, inplace=False)
                  (act): ReLU()
                )
                (expert_6): SwitchTransformersDenseActDense(
                  (wi): Linear(in_features=768, out_features=3072, bias=False)
                  (wo): Linear(in_features=3072, out_features=768, bias=False)
                  (dropout): Dropout(p=0.1, inplace=False)
                  (act): ReLU()
                )
                (expert_7): SwitchTransformersDenseActDense(
                  (wi): Linear(in_features=768, out_features=3072, bias=False)
                  (wo): Linear(in_features=3072, out_features=768, bias=False)
                  (dropout): Dropout(p=0.1, inplace=False)
                  (act): ReLU()
                )
                (expert_8): SwitchTransformersDenseActDense(
                  (wi): Linear(in_features=768, out_features=3072, bias=False)
                  (wo): Linear(in_features=3072, out_features=768, bias=False)
                  (dropout): Dropout(p=0.1, inplace=False)
                  (act): ReLU()
                )
                (expert_9): SwitchTransformersDenseActDense(
                  (wi): Linear(in_features=768, out_features=3072, bias=False)
                  (wo): Linear(in_features=3072, out_features=768, bias=False)
                  (dropout): Dropout(p=0.1, inplace=False)
                  (act): ReLU()
                )
                (expert_10): SwitchTransformersDenseActDense(
                  (wi): Linear(in_features=768, out_features=3072, bias=False)
                  (wo): Linear(in_features=3072, out_features=768, bias=False)
                  (dropout): Dropout(p=0.1, inplace=False)
                  (act): ReLU()
                )
                (expert_11): SwitchTransformersDenseActDense(
                  (wi): Linear(in_features=768, out_features=3072, bias=False)
                  (wo): Linear(in_features=3072, out_features=768, bias=False)
                  (dropout): Dropout(p=0.1, inplace=False)
                  (act): ReLU()
                )
                (expert_12): SwitchTransformersDenseActDense(
                  (wi): Linear(in_features=768, out_features=3072, bias=False)
                  (wo): Linear(in_features=3072, out_features=768, bias=False)
                  (dropout): Dropout(p=0.1, inplace=False)
                  (act): ReLU()
                )
                (expert_13): SwitchTransformersDenseActDense(
                  (wi): Linear(in_features=768, out_features=3072, bias=False)
                  (wo): Linear(in_features=3072, out_features=768, bias=False)
                  (dropout): Dropout(p=0.1, inplace=False)
                  (act): ReLU()
                )
                (expert_14): SwitchTransformersDenseActDense(
                  (wi): Linear(in_features=768, out_features=3072, bias=False)
                  (wo): Linear(in_features=3072, out_features=768, bias=False)
                  (dropout): Dropout(p=0.1, inplace=False)
                  (act): ReLU()
                )
                (expert_15): SwitchTransformersDenseActDense(
                  (wi): Linear(in_features=768, out_features=3072, bias=False)
                  (wo): Linear(in_features=3072, out_features=768, bias=False)
                  (dropout): Dropout(p=0.1, inplace=False)
                  (act): ReLU()
                )
              )
            )
            (layer_norm): SwitchTransformersLayerNorm()
            (dropout): Dropout(p=0.1, inplace=False)
          )
        )
      )
      (4): SwitchTransformersBlock(
        (layer): ModuleList(
          (0): SwitchTransformersLayerSelfAttention(
            (SelfAttention): SwitchTransformersAttention(
              (q): Linear(in_features=768, out_features=768, bias=False)
              (k): Linear(in_features=768, out_features=768, bias=False)
              (v): Linear(in_features=768, out_features=768, bias=False)
              (o): Linear(in_features=768, out_features=768, bias=False)
            )
            (layer_norm): SwitchTransformersLayerNorm()
            (dropout): Dropout(p=0.1, inplace=False)
          )
          (1): SwitchTransformersLayerFF(
            (mlp): SwitchTransformersDenseActDense(
              (wi): Linear(in_features=768, out_features=3072, bias=False)
              (wo): Linear(in_features=3072, out_features=768, bias=False)
              (dropout): Dropout(p=0.1, inplace=False)
              (act): ReLU()
            )
            (layer_norm): SwitchTransformersLayerNorm()
            (dropout): Dropout(p=0.1, inplace=False)
          )
        )
      )
      (5): SwitchTransformersBlock(
        (layer): ModuleList(
          (0): SwitchTransformersLayerSelfAttention(
            (SelfAttention): SwitchTransformersAttention(
              (q): Linear(in_features=768, out_features=768, bias=False)
              (k): Linear(in_features=768, out_features=768, bias=False)
              (v): Linear(in_features=768, out_features=768, bias=False)
              (o): Linear(in_features=768, out_features=768, bias=False)
            )
            (layer_norm): SwitchTransformersLayerNorm()
            (dropout): Dropout(p=0.1, inplace=False)
          )
          (1): SwitchTransformersLayerFF(
            (mlp): SwitchTransformersSparseMLP(
              (router): SwitchTransformersTop1Router(
                (classifier): Linear(in_features=768, out_features=16, bias=False)
              )
              (experts): ModuleDict(
                (expert_0): SwitchTransformersDenseActDense(
                  (wi): Linear(in_features=768, out_features=3072, bias=False)
                  (wo): Linear(in_features=3072, out_features=768, bias=False)
                  (dropout): Dropout(p=0.1, inplace=False)
                  (act): ReLU()
                )
                (expert_1): SwitchTransformersDenseActDense(
                  (wi): Linear(in_features=768, out_features=3072, bias=False)
                  (wo): Linear(in_features=3072, out_features=768, bias=False)
                  (dropout): Dropout(p=0.1, inplace=False)
                  (act): ReLU()
                )
                (expert_2): SwitchTransformersDenseActDense(
                  (wi): Linear(in_features=768, out_features=3072, bias=False)
                  (wo): Linear(in_features=3072, out_features=768, bias=False)
                  (dropout): Dropout(p=0.1, inplace=False)
                  (act): ReLU()
                )
                (expert_3): SwitchTransformersDenseActDense(
                  (wi): Linear(in_features=768, out_features=3072, bias=False)
                  (wo): Linear(in_features=3072, out_features=768, bias=False)
                  (dropout): Dropout(p=0.1, inplace=False)
                  (act): ReLU()
                )
                (expert_4): SwitchTransformersDenseActDense(
                  (wi): Linear(in_features=768, out_features=3072, bias=False)
                  (wo): Linear(in_features=3072, out_features=768, bias=False)
                  (dropout): Dropout(p=0.1, inplace=False)
                  (act): ReLU()
                )
                (expert_5): SwitchTransformersDenseActDense(
                  (wi): Linear(in_features=768, out_features=3072, bias=False)
                  (wo): Linear(in_features=3072, out_features=768, bias=False)
                  (dropout): Dropout(p=0.1, inplace=False)
                  (act): ReLU()
                )
                (expert_6): SwitchTransformersDenseActDense(
                  (wi): Linear(in_features=768, out_features=3072, bias=False)
                  (wo): Linear(in_features=3072, out_features=768, bias=False)
                  (dropout): Dropout(p=0.1, inplace=False)
                  (act): ReLU()
                )
                (expert_7): SwitchTransformersDenseActDense(
                  (wi): Linear(in_features=768, out_features=3072, bias=False)
                  (wo): Linear(in_features=3072, out_features=768, bias=False)
                  (dropout): Dropout(p=0.1, inplace=False)
                  (act): ReLU()
                )
                (expert_8): SwitchTransformersDenseActDense(
                  (wi): Linear(in_features=768, out_features=3072, bias=False)
                  (wo): Linear(in_features=3072, out_features=768, bias=False)
                  (dropout): Dropout(p=0.1, inplace=False)
                  (act): ReLU()
                )
                (expert_9): SwitchTransformersDenseActDense(
                  (wi): Linear(in_features=768, out_features=3072, bias=False)
                  (wo): Linear(in_features=3072, out_features=768, bias=False)
                  (dropout): Dropout(p=0.1, inplace=False)
                  (act): ReLU()
                )
                (expert_10): SwitchTransformersDenseActDense(
                  (wi): Linear(in_features=768, out_features=3072, bias=False)
                  (wo): Linear(in_features=3072, out_features=768, bias=False)
                  (dropout): Dropout(p=0.1, inplace=False)
                  (act): ReLU()
                )
                (expert_11): SwitchTransformersDenseActDense(
                  (wi): Linear(in_features=768, out_features=3072, bias=False)
                  (wo): Linear(in_features=3072, out_features=768, bias=False)
                  (dropout): Dropout(p=0.1, inplace=False)
                  (act): ReLU()
                )
                (expert_12): SwitchTransformersDenseActDense(
                  (wi): Linear(in_features=768, out_features=3072, bias=False)
                  (wo): Linear(in_features=3072, out_features=768, bias=False)
                  (dropout): Dropout(p=0.1, inplace=False)
                  (act): ReLU()
                )
                (expert_13): SwitchTransformersDenseActDense(
                  (wi): Linear(in_features=768, out_features=3072, bias=False)
                  (wo): Linear(in_features=3072, out_features=768, bias=False)
                  (dropout): Dropout(p=0.1, inplace=False)
                  (act): ReLU()
                )
                (expert_14): SwitchTransformersDenseActDense(
                  (wi): Linear(in_features=768, out_features=3072, bias=False)
                  (wo): Linear(in_features=3072, out_features=768, bias=False)
                  (dropout): Dropout(p=0.1, inplace=False)
                  (act): ReLU()
                )
                (expert_15): SwitchTransformersDenseActDense(
                  (wi): Linear(in_features=768, out_features=3072, bias=False)
                  (wo): Linear(in_features=3072, out_features=768, bias=False)
                  (dropout): Dropout(p=0.1, inplace=False)
                  (act): ReLU()
                )
              )
            )
            (layer_norm): SwitchTransformersLayerNorm()
            (dropout): Dropout(p=0.1, inplace=False)
          )
        )
      )
      (6): SwitchTransformersBlock(
        (layer): ModuleList(
          (0): SwitchTransformersLayerSelfAttention(
            (SelfAttention): SwitchTransformersAttention(
              (q): Linear(in_features=768, out_features=768, bias=False)
              (k): Linear(in_features=768, out_features=768, bias=False)
              (v): Linear(in_features=768, out_features=768, bias=False)
              (o): Linear(in_features=768, out_features=768, bias=False)
            )
            (layer_norm): SwitchTransformersLayerNorm()
            (dropout): Dropout(p=0.1, inplace=False)
          )
          (1): SwitchTransformersLayerFF(
            (mlp): SwitchTransformersDenseActDense(
              (wi): Linear(in_features=768, out_features=3072, bias=False)
              (wo): Linear(in_features=3072, out_features=768, bias=False)
              (dropout): Dropout(p=0.1, inplace=False)
              (act): ReLU()
            )
            (layer_norm): SwitchTransformersLayerNorm()
            (dropout): Dropout(p=0.1, inplace=False)
          )
        )
      )
      (7): SwitchTransformersBlock(
        (layer): ModuleList(
          (0): SwitchTransformersLayerSelfAttention(
            (SelfAttention): SwitchTransformersAttention(
              (q): Linear(in_features=768, out_features=768, bias=False)
              (k): Linear(in_features=768, out_features=768, bias=False)
              (v): Linear(in_features=768, out_features=768, bias=False)
              (o): Linear(in_features=768, out_features=768, bias=False)
            )
            (layer_norm): SwitchTransformersLayerNorm()
            (dropout): Dropout(p=0.1, inplace=False)
          )
          (1): SwitchTransformersLayerFF(
            (mlp): SwitchTransformersSparseMLP(
              (router): SwitchTransformersTop1Router(
                (classifier): Linear(in_features=768, out_features=16, bias=False)
              )
              (experts): ModuleDict(
                (expert_0): SwitchTransformersDenseActDense(
                  (wi): Linear(in_features=768, out_features=3072, bias=False)
                  (wo): Linear(in_features=3072, out_features=768, bias=False)
                  (dropout): Dropout(p=0.1, inplace=False)
                  (act): ReLU()
                )
                (expert_1): SwitchTransformersDenseActDense(
                  (wi): Linear(in_features=768, out_features=3072, bias=False)
                  (wo): Linear(in_features=3072, out_features=768, bias=False)
                  (dropout): Dropout(p=0.1, inplace=False)
                  (act): ReLU()
                )
                (expert_2): SwitchTransformersDenseActDense(
                  (wi): Linear(in_features=768, out_features=3072, bias=False)
                  (wo): Linear(in_features=3072, out_features=768, bias=False)
                  (dropout): Dropout(p=0.1, inplace=False)
                  (act): ReLU()
                )
                (expert_3): SwitchTransformersDenseActDense(
                  (wi): Linear(in_features=768, out_features=3072, bias=False)
                  (wo): Linear(in_features=3072, out_features=768, bias=False)
                  (dropout): Dropout(p=0.1, inplace=False)
                  (act): ReLU()
                )
                (expert_4): SwitchTransformersDenseActDense(
                  (wi): Linear(in_features=768, out_features=3072, bias=False)
                  (wo): Linear(in_features=3072, out_features=768, bias=False)
                  (dropout): Dropout(p=0.1, inplace=False)
                  (act): ReLU()
                )
                (expert_5): SwitchTransformersDenseActDense(
                  (wi): Linear(in_features=768, out_features=3072, bias=False)
                  (wo): Linear(in_features=3072, out_features=768, bias=False)
                  (dropout): Dropout(p=0.1, inplace=False)
                  (act): ReLU()
                )
                (expert_6): SwitchTransformersDenseActDense(
                  (wi): Linear(in_features=768, out_features=3072, bias=False)
                  (wo): Linear(in_features=3072, out_features=768, bias=False)
                  (dropout): Dropout(p=0.1, inplace=False)
                  (act): ReLU()
                )
                (expert_7): SwitchTransformersDenseActDense(
                  (wi): Linear(in_features=768, out_features=3072, bias=False)
                  (wo): Linear(in_features=3072, out_features=768, bias=False)
                  (dropout): Dropout(p=0.1, inplace=False)
                  (act): ReLU()
                )
                (expert_8): SwitchTransformersDenseActDense(
                  (wi): Linear(in_features=768, out_features=3072, bias=False)
                  (wo): Linear(in_features=3072, out_features=768, bias=False)
                  (dropout): Dropout(p=0.1, inplace=False)
                  (act): ReLU()
                )
                (expert_9): SwitchTransformersDenseActDense(
                  (wi): Linear(in_features=768, out_features=3072, bias=False)
                  (wo): Linear(in_features=3072, out_features=768, bias=False)
                  (dropout): Dropout(p=0.1, inplace=False)
                  (act): ReLU()
                )
                (expert_10): SwitchTransformersDenseActDense(
                  (wi): Linear(in_features=768, out_features=3072, bias=False)
                  (wo): Linear(in_features=3072, out_features=768, bias=False)
                  (dropout): Dropout(p=0.1, inplace=False)
                  (act): ReLU()
                )
                (expert_11): SwitchTransformersDenseActDense(
                  (wi): Linear(in_features=768, out_features=3072, bias=False)
                  (wo): Linear(in_features=3072, out_features=768, bias=False)
                  (dropout): Dropout(p=0.1, inplace=False)
                  (act): ReLU()
                )
                (expert_12): SwitchTransformersDenseActDense(
                  (wi): Linear(in_features=768, out_features=3072, bias=False)
                  (wo): Linear(in_features=3072, out_features=768, bias=False)
                  (dropout): Dropout(p=0.1, inplace=False)
                  (act): ReLU()
                )
                (expert_13): SwitchTransformersDenseActDense(
                  (wi): Linear(in_features=768, out_features=3072, bias=False)
                  (wo): Linear(in_features=3072, out_features=768, bias=False)
                  (dropout): Dropout(p=0.1, inplace=False)
                  (act): ReLU()
                )
                (expert_14): SwitchTransformersDenseActDense(
                  (wi): Linear(in_features=768, out_features=3072, bias=False)
                  (wo): Linear(in_features=3072, out_features=768, bias=False)
                  (dropout): Dropout(p=0.1, inplace=False)
                  (act): ReLU()
                )
                (expert_15): SwitchTransformersDenseActDense(
                  (wi): Linear(in_features=768, out_features=3072, bias=False)
                  (wo): Linear(in_features=3072, out_features=768, bias=False)
                  (dropout): Dropout(p=0.1, inplace=False)
                  (act): ReLU()
                )
              )
            )
            (layer_norm): SwitchTransformersLayerNorm()
            (dropout): Dropout(p=0.1, inplace=False)
          )
        )
      )
      (8): SwitchTransformersBlock(
        (layer): ModuleList(
          (0): SwitchTransformersLayerSelfAttention(
            (SelfAttention): SwitchTransformersAttention(
              (q): Linear(in_features=768, out_features=768, bias=False)
              (k): Linear(in_features=768, out_features=768, bias=False)
              (v): Linear(in_features=768, out_features=768, bias=False)
              (o): Linear(in_features=768, out_features=768, bias=False)
            )
            (layer_norm): SwitchTransformersLayerNorm()
            (dropout): Dropout(p=0.1, inplace=False)
          )
          (1): SwitchTransformersLayerFF(
            (mlp): SwitchTransformersDenseActDense(
              (wi): Linear(in_features=768, out_features=3072, bias=False)
              (wo): Linear(in_features=3072, out_features=768, bias=False)
              (dropout): Dropout(p=0.1, inplace=False)
              (act): ReLU()
            )
            (layer_norm): SwitchTransformersLayerNorm()
            (dropout): Dropout(p=0.1, inplace=False)
          )
        )
      )
      (9): SwitchTransformersBlock(
        (layer): ModuleList(
          (0): SwitchTransformersLayerSelfAttention(
            (SelfAttention): SwitchTransformersAttention(
              (q): Linear(in_features=768, out_features=768, bias=False)
              (k): Linear(in_features=768, out_features=768, bias=False)
              (v): Linear(in_features=768, out_features=768, bias=False)
              (o): Linear(in_features=768, out_features=768, bias=False)
            )
            (layer_norm): SwitchTransformersLayerNorm()
            (dropout): Dropout(p=0.1, inplace=False)
          )
          (1): SwitchTransformersLayerFF(
            (mlp): SwitchTransformersSparseMLP(
              (router): SwitchTransformersTop1Router(
                (classifier): Linear(in_features=768, out_features=16, bias=False)
              )
              (experts): ModuleDict(
                (expert_0): SwitchTransformersDenseActDense(
                  (wi): Linear(in_features=768, out_features=3072, bias=False)
                  (wo): Linear(in_features=3072, out_features=768, bias=False)
                  (dropout): Dropout(p=0.1, inplace=False)
                  (act): ReLU()
                )
                (expert_1): SwitchTransformersDenseActDense(
                  (wi): Linear(in_features=768, out_features=3072, bias=False)
                  (wo): Linear(in_features=3072, out_features=768, bias=False)
                  (dropout): Dropout(p=0.1, inplace=False)
                  (act): ReLU()
                )
                (expert_2): SwitchTransformersDenseActDense(
                  (wi): Linear(in_features=768, out_features=3072, bias=False)
                  (wo): Linear(in_features=3072, out_features=768, bias=False)
                  (dropout): Dropout(p=0.1, inplace=False)
                  (act): ReLU()
                )
                (expert_3): SwitchTransformersDenseActDense(
                  (wi): Linear(in_features=768, out_features=3072, bias=False)
                  (wo): Linear(in_features=3072, out_features=768, bias=False)
                  (dropout): Dropout(p=0.1, inplace=False)
                  (act): ReLU()
                )
                (expert_4): SwitchTransformersDenseActDense(
                  (wi): Linear(in_features=768, out_features=3072, bias=False)
                  (wo): Linear(in_features=3072, out_features=768, bias=False)
                  (dropout): Dropout(p=0.1, inplace=False)
                  (act): ReLU()
                )
                (expert_5): SwitchTransformersDenseActDense(
                  (wi): Linear(in_features=768, out_features=3072, bias=False)
                  (wo): Linear(in_features=3072, out_features=768, bias=False)
                  (dropout): Dropout(p=0.1, inplace=False)
                  (act): ReLU()
                )
                (expert_6): SwitchTransformersDenseActDense(
                  (wi): Linear(in_features=768, out_features=3072, bias=False)
                  (wo): Linear(in_features=3072, out_features=768, bias=False)
                  (dropout): Dropout(p=0.1, inplace=False)
                  (act): ReLU()
                )
                (expert_7): SwitchTransformersDenseActDense(
                  (wi): Linear(in_features=768, out_features=3072, bias=False)
                  (wo): Linear(in_features=3072, out_features=768, bias=False)
                  (dropout): Dropout(p=0.1, inplace=False)
                  (act): ReLU()
                )
                (expert_8): SwitchTransformersDenseActDense(
                  (wi): Linear(in_features=768, out_features=3072, bias=False)
                  (wo): Linear(in_features=3072, out_features=768, bias=False)
                  (dropout): Dropout(p=0.1, inplace=False)
                  (act): ReLU()
                )
                (expert_9): SwitchTransformersDenseActDense(
                  (wi): Linear(in_features=768, out_features=3072, bias=False)
                  (wo): Linear(in_features=3072, out_features=768, bias=False)
                  (dropout): Dropout(p=0.1, inplace=False)
                  (act): ReLU()
                )
                (expert_10): SwitchTransformersDenseActDense(
                  (wi): Linear(in_features=768, out_features=3072, bias=False)
                  (wo): Linear(in_features=3072, out_features=768, bias=False)
                  (dropout): Dropout(p=0.1, inplace=False)
                  (act): ReLU()
                )
                (expert_11): SwitchTransformersDenseActDense(
                  (wi): Linear(in_features=768, out_features=3072, bias=False)
                  (wo): Linear(in_features=3072, out_features=768, bias=False)
                  (dropout): Dropout(p=0.1, inplace=False)
                  (act): ReLU()
                )
                (expert_12): SwitchTransformersDenseActDense(
                  (wi): Linear(in_features=768, out_features=3072, bias=False)
                  (wo): Linear(in_features=3072, out_features=768, bias=False)
                  (dropout): Dropout(p=0.1, inplace=False)
                  (act): ReLU()
                )
                (expert_13): SwitchTransformersDenseActDense(
                  (wi): Linear(in_features=768, out_features=3072, bias=False)
                  (wo): Linear(in_features=3072, out_features=768, bias=False)
                  (dropout): Dropout(p=0.1, inplace=False)
                  (act): ReLU()
                )
                (expert_14): SwitchTransformersDenseActDense(
                  (wi): Linear(in_features=768, out_features=3072, bias=False)
                  (wo): Linear(in_features=3072, out_features=768, bias=False)
                  (dropout): Dropout(p=0.1, inplace=False)
                  (act): ReLU()
                )
                (expert_15): SwitchTransformersDenseActDense(
                  (wi): Linear(in_features=768, out_features=3072, bias=False)
                  (wo): Linear(in_features=3072, out_features=768, bias=False)
                  (dropout): Dropout(p=0.1, inplace=False)
                  (act): ReLU()
                )
              )
            )
            (layer_norm): SwitchTransformersLayerNorm()
            (dropout): Dropout(p=0.1, inplace=False)
          )
        )
      )
      (10): SwitchTransformersBlock(
        (layer): ModuleList(
          (0): SwitchTransformersLayerSelfAttention(
            (SelfAttention): SwitchTransformersAttention(
              (q): Linear(in_features=768, out_features=768, bias=False)
              (k): Linear(in_features=768, out_features=768, bias=False)
              (v): Linear(in_features=768, out_features=768, bias=False)
              (o): Linear(in_features=768, out_features=768, bias=False)
            )
            (layer_norm): SwitchTransformersLayerNorm()
            (dropout): Dropout(p=0.1, inplace=False)
          )
          (1): SwitchTransformersLayerFF(
            (mlp): SwitchTransformersDenseActDense(
              (wi): Linear(in_features=768, out_features=3072, bias=False)
              (wo): Linear(in_features=3072, out_features=768, bias=False)
              (dropout): Dropout(p=0.1, inplace=False)
              (act): ReLU()
            )
            (layer_norm): SwitchTransformersLayerNorm()
            (dropout): Dropout(p=0.1, inplace=False)
          )
        )
      )
      (11): SwitchTransformersBlock(
        (layer): ModuleList(
          (0): SwitchTransformersLayerSelfAttention(
            (SelfAttention): SwitchTransformersAttention(
              (q): Linear(in_features=768, out_features=768, bias=False)
              (k): Linear(in_features=768, out_features=768, bias=False)
              (v): Linear(in_features=768, out_features=768, bias=False)
              (o): Linear(in_features=768, out_features=768, bias=False)
            )
            (layer_norm): SwitchTransformersLayerNorm()
            (dropout): Dropout(p=0.1, inplace=False)
          )
          (1): SwitchTransformersLayerFF(
            (mlp): SwitchTransformersSparseMLP(
              (router): SwitchTransformersTop1Router(
                (classifier): Linear(in_features=768, out_features=16, bias=False)
              )
              (experts): ModuleDict(
                (expert_0): SwitchTransformersDenseActDense(
                  (wi): Linear(in_features=768, out_features=3072, bias=False)
                  (wo): Linear(in_features=3072, out_features=768, bias=False)
                  (dropout): Dropout(p=0.1, inplace=False)
                  (act): ReLU()
                )
                (expert_1): SwitchTransformersDenseActDense(
                  (wi): Linear(in_features=768, out_features=3072, bias=False)
                  (wo): Linear(in_features=3072, out_features=768, bias=False)
                  (dropout): Dropout(p=0.1, inplace=False)
                  (act): ReLU()
                )
                (expert_2): SwitchTransformersDenseActDense(
                  (wi): Linear(in_features=768, out_features=3072, bias=False)
                  (wo): Linear(in_features=3072, out_features=768, bias=False)
                  (dropout): Dropout(p=0.1, inplace=False)
                  (act): ReLU()
                )
                (expert_3): SwitchTransformersDenseActDense(
                  (wi): Linear(in_features=768, out_features=3072, bias=False)
                  (wo): Linear(in_features=3072, out_features=768, bias=False)
                  (dropout): Dropout(p=0.1, inplace=False)
                  (act): ReLU()
                )
                (expert_4): SwitchTransformersDenseActDense(
                  (wi): Linear(in_features=768, out_features=3072, bias=False)
                  (wo): Linear(in_features=3072, out_features=768, bias=False)
                  (dropout): Dropout(p=0.1, inplace=False)
                  (act): ReLU()
                )
                (expert_5): SwitchTransformersDenseActDense(
                  (wi): Linear(in_features=768, out_features=3072, bias=False)
                  (wo): Linear(in_features=3072, out_features=768, bias=False)
                  (dropout): Dropout(p=0.1, inplace=False)
                  (act): ReLU()
                )
                (expert_6): SwitchTransformersDenseActDense(
                  (wi): Linear(in_features=768, out_features=3072, bias=False)
                  (wo): Linear(in_features=3072, out_features=768, bias=False)
                  (dropout): Dropout(p=0.1, inplace=False)
                  (act): ReLU()
                )
                (expert_7): SwitchTransformersDenseActDense(
                  (wi): Linear(in_features=768, out_features=3072, bias=False)
                  (wo): Linear(in_features=3072, out_features=768, bias=False)
                  (dropout): Dropout(p=0.1, inplace=False)
                  (act): ReLU()
                )
                (expert_8): SwitchTransformersDenseActDense(
                  (wi): Linear(in_features=768, out_features=3072, bias=False)
                  (wo): Linear(in_features=3072, out_features=768, bias=False)
                  (dropout): Dropout(p=0.1, inplace=False)
                  (act): ReLU()
                )
                (expert_9): SwitchTransformersDenseActDense(
                  (wi): Linear(in_features=768, out_features=3072, bias=False)
                  (wo): Linear(in_features=3072, out_features=768, bias=False)
                  (dropout): Dropout(p=0.1, inplace=False)
                  (act): ReLU()
                )
                (expert_10): SwitchTransformersDenseActDense(
                  (wi): Linear(in_features=768, out_features=3072, bias=False)
                  (wo): Linear(in_features=3072, out_features=768, bias=False)
                  (dropout): Dropout(p=0.1, inplace=False)
                  (act): ReLU()
                )
                (expert_11): SwitchTransformersDenseActDense(
                  (wi): Linear(in_features=768, out_features=3072, bias=False)
                  (wo): Linear(in_features=3072, out_features=768, bias=False)
                  (dropout): Dropout(p=0.1, inplace=False)
                  (act): ReLU()
                )
                (expert_12): SwitchTransformersDenseActDense(
                  (wi): Linear(in_features=768, out_features=3072, bias=False)
                  (wo): Linear(in_features=3072, out_features=768, bias=False)
                  (dropout): Dropout(p=0.1, inplace=False)
                  (act): ReLU()
                )
                (expert_13): SwitchTransformersDenseActDense(
                  (wi): Linear(in_features=768, out_features=3072, bias=False)
                  (wo): Linear(in_features=3072, out_features=768, bias=False)
                  (dropout): Dropout(p=0.1, inplace=False)
                  (act): ReLU()
                )
                (expert_14): SwitchTransformersDenseActDense(
                  (wi): Linear(in_features=768, out_features=3072, bias=False)
                  (wo): Linear(in_features=3072, out_features=768, bias=False)
                  (dropout): Dropout(p=0.1, inplace=False)
                  (act): ReLU()
                )
                (expert_15): SwitchTransformersDenseActDense(
                  (wi): Linear(in_features=768, out_features=3072, bias=False)
                  (wo): Linear(in_features=3072, out_features=768, bias=False)
                  (dropout): Dropout(p=0.1, inplace=False)
                  (act): ReLU()
                )
              )
            )
            (layer_norm): SwitchTransformersLayerNorm()
            (dropout): Dropout(p=0.1, inplace=False)
          )
        )
      )
    )
    (final_layer_norm): SwitchTransformersLayerNorm()
    (dropout): Dropout(p=0.1, inplace=False)
  )
  (decoder): SwitchTransformersStack(
    (embed_tokens): Embedding(32128, 768)
    (block): ModuleList(
      (0): SwitchTransformersBlock(
        (layer): ModuleList(
          (0): SwitchTransformersLayerSelfAttention(
            (SelfAttention): SwitchTransformersAttention(
              (q): Linear(in_features=768, out_features=768, bias=False)
              (k): Linear(in_features=768, out_features=768, bias=False)
              (v): Linear(in_features=768, out_features=768, bias=False)
              (o): Linear(in_features=768, out_features=768, bias=False)
              (relative_attention_bias): Embedding(32, 12)
            )
            (layer_norm): SwitchTransformersLayerNorm()
            (dropout): Dropout(p=0.1, inplace=False)
          )
          (1): SwitchTransformersLayerCrossAttention(
            (EncDecAttention): SwitchTransformersAttention(
              (q): Linear(in_features=768, out_features=768, bias=False)
              (k): Linear(in_features=768, out_features=768, bias=False)
              (v): Linear(in_features=768, out_features=768, bias=False)
              (o): Linear(in_features=768, out_features=768, bias=False)
            )
            (layer_norm): SwitchTransformersLayerNorm()
            (dropout): Dropout(p=0.1, inplace=False)
          )
          (2): SwitchTransformersLayerFF(
            (mlp): SwitchTransformersDenseActDense(
              (wi): Linear(in_features=768, out_features=3072, bias=False)
              (wo): Linear(in_features=3072, out_features=768, bias=False)
              (dropout): Dropout(p=0.1, inplace=False)
              (act): ReLU()
            )
            (layer_norm): SwitchTransformersLayerNorm()
            (dropout): Dropout(p=0.1, inplace=False)
          )
        )
      )
      (1): SwitchTransformersBlock(
        (layer): ModuleList(
          (0): SwitchTransformersLayerSelfAttention(
            (SelfAttention): SwitchTransformersAttention(
              (q): Linear(in_features=768, out_features=768, bias=False)
              (k): Linear(in_features=768, out_features=768, bias=False)
              (v): Linear(in_features=768, out_features=768, bias=False)
              (o): Linear(in_features=768, out_features=768, bias=False)
            )
            (layer_norm): SwitchTransformersLayerNorm()
            (dropout): Dropout(p=0.1, inplace=False)
          )
          (1): SwitchTransformersLayerCrossAttention(
            (EncDecAttention): SwitchTransformersAttention(
              (q): Linear(in_features=768, out_features=768, bias=False)
              (k): Linear(in_features=768, out_features=768, bias=False)
              (v): Linear(in_features=768, out_features=768, bias=False)
              (o): Linear(in_features=768, out_features=768, bias=False)
            )
            (layer_norm): SwitchTransformersLayerNorm()
            (dropout): Dropout(p=0.1, inplace=False)
          )
          (2): SwitchTransformersLayerFF(
            (mlp): SwitchTransformersSparseMLP(
              (router): SwitchTransformersTop1Router(
                (classifier): Linear(in_features=768, out_features=16, bias=False)
              )
              (experts): ModuleDict(
                (expert_0): SwitchTransformersDenseActDense(
                  (wi): Linear(in_features=768, out_features=3072, bias=False)
                  (wo): Linear(in_features=3072, out_features=768, bias=False)
                  (dropout): Dropout(p=0.1, inplace=False)
                  (act): ReLU()
                )
                (expert_1): SwitchTransformersDenseActDense(
                  (wi): Linear(in_features=768, out_features=3072, bias=False)
                  (wo): Linear(in_features=3072, out_features=768, bias=False)
                  (dropout): Dropout(p=0.1, inplace=False)
                  (act): ReLU()
                )
                (expert_2): SwitchTransformersDenseActDense(
                  (wi): Linear(in_features=768, out_features=3072, bias=False)
                  (wo): Linear(in_features=3072, out_features=768, bias=False)
                  (dropout): Dropout(p=0.1, inplace=False)
                  (act): ReLU()
                )
                (expert_3): SwitchTransformersDenseActDense(
                  (wi): Linear(in_features=768, out_features=3072, bias=False)
                  (wo): Linear(in_features=3072, out_features=768, bias=False)
                  (dropout): Dropout(p=0.1, inplace=False)
                  (act): ReLU()
                )
                (expert_4): SwitchTransformersDenseActDense(
                  (wi): Linear(in_features=768, out_features=3072, bias=False)
                  (wo): Linear(in_features=3072, out_features=768, bias=False)
                  (dropout): Dropout(p=0.1, inplace=False)
                  (act): ReLU()
                )
                (expert_5): SwitchTransformersDenseActDense(
                  (wi): Linear(in_features=768, out_features=3072, bias=False)
                  (wo): Linear(in_features=3072, out_features=768, bias=False)
                  (dropout): Dropout(p=0.1, inplace=False)
                  (act): ReLU()
                )
                (expert_6): SwitchTransformersDenseActDense(
                  (wi): Linear(in_features=768, out_features=3072, bias=False)
                  (wo): Linear(in_features=3072, out_features=768, bias=False)
                  (dropout): Dropout(p=0.1, inplace=False)
                  (act): ReLU()
                )
                (expert_7): SwitchTransformersDenseActDense(
                  (wi): Linear(in_features=768, out_features=3072, bias=False)
                  (wo): Linear(in_features=3072, out_features=768, bias=False)
                  (dropout): Dropout(p=0.1, inplace=False)
                  (act): ReLU()
                )
                (expert_8): SwitchTransformersDenseActDense(
                  (wi): Linear(in_features=768, out_features=3072, bias=False)
                  (wo): Linear(in_features=3072, out_features=768, bias=False)
                  (dropout): Dropout(p=0.1, inplace=False)
                  (act): ReLU()
                )
                (expert_9): SwitchTransformersDenseActDense(
                  (wi): Linear(in_features=768, out_features=3072, bias=False)
                  (wo): Linear(in_features=3072, out_features=768, bias=False)
                  (dropout): Dropout(p=0.1, inplace=False)
                  (act): ReLU()
                )
                (expert_10): SwitchTransformersDenseActDense(
                  (wi): Linear(in_features=768, out_features=3072, bias=False)
                  (wo): Linear(in_features=3072, out_features=768, bias=False)
                  (dropout): Dropout(p=0.1, inplace=False)
                  (act): ReLU()
                )
                (expert_11): SwitchTransformersDenseActDense(
                  (wi): Linear(in_features=768, out_features=3072, bias=False)
                  (wo): Linear(in_features=3072, out_features=768, bias=False)
                  (dropout): Dropout(p=0.1, inplace=False)
                  (act): ReLU()
                )
                (expert_12): SwitchTransformersDenseActDense(
                  (wi): Linear(in_features=768, out_features=3072, bias=False)
                  (wo): Linear(in_features=3072, out_features=768, bias=False)
                  (dropout): Dropout(p=0.1, inplace=False)
                  (act): ReLU()
                )
                (expert_13): SwitchTransformersDenseActDense(
                  (wi): Linear(in_features=768, out_features=3072, bias=False)
                  (wo): Linear(in_features=3072, out_features=768, bias=False)
                  (dropout): Dropout(p=0.1, inplace=False)
                  (act): ReLU()
                )
                (expert_14): SwitchTransformersDenseActDense(
                  (wi): Linear(in_features=768, out_features=3072, bias=False)
                  (wo): Linear(in_features=3072, out_features=768, bias=False)
                  (dropout): Dropout(p=0.1, inplace=False)
                  (act): ReLU()
                )
                (expert_15): SwitchTransformersDenseActDense(
                  (wi): Linear(in_features=768, out_features=3072, bias=False)
                  (wo): Linear(in_features=3072, out_features=768, bias=False)
                  (dropout): Dropout(p=0.1, inplace=False)
                  (act): ReLU()
                )
              )
            )
            (layer_norm): SwitchTransformersLayerNorm()
            (dropout): Dropout(p=0.1, inplace=False)
          )
        )
      )
      (2): SwitchTransformersBlock(
        (layer): ModuleList(
          (0): SwitchTransformersLayerSelfAttention(
            (SelfAttention): SwitchTransformersAttention(
              (q): Linear(in_features=768, out_features=768, bias=False)
              (k): Linear(in_features=768, out_features=768, bias=False)
              (v): Linear(in_features=768, out_features=768, bias=False)
              (o): Linear(in_features=768, out_features=768, bias=False)
            )
            (layer_norm): SwitchTransformersLayerNorm()
            (dropout): Dropout(p=0.1, inplace=False)
          )
          (1): SwitchTransformersLayerCrossAttention(
            (EncDecAttention): SwitchTransformersAttention(
              (q): Linear(in_features=768, out_features=768, bias=False)
              (k): Linear(in_features=768, out_features=768, bias=False)
              (v): Linear(in_features=768, out_features=768, bias=False)
              (o): Linear(in_features=768, out_features=768, bias=False)
            )
            (layer_norm): SwitchTransformersLayerNorm()
            (dropout): Dropout(p=0.1, inplace=False)
          )
          (2): SwitchTransformersLayerFF(
            (mlp): SwitchTransformersDenseActDense(
              (wi): Linear(in_features=768, out_features=3072, bias=False)
              (wo): Linear(in_features=3072, out_features=768, bias=False)
              (dropout): Dropout(p=0.1, inplace=False)
              (act): ReLU()
            )
            (layer_norm): SwitchTransformersLayerNorm()
            (dropout): Dropout(p=0.1, inplace=False)
          )
        )
      )
      (3): SwitchTransformersBlock(
        (layer): ModuleList(
          (0): SwitchTransformersLayerSelfAttention(
            (SelfAttention): SwitchTransformersAttention(
              (q): Linear(in_features=768, out_features=768, bias=False)
              (k): Linear(in_features=768, out_features=768, bias=False)
              (v): Linear(in_features=768, out_features=768, bias=False)
              (o): Linear(in_features=768, out_features=768, bias=False)
            )
            (layer_norm): SwitchTransformersLayerNorm()
            (dropout): Dropout(p=0.1, inplace=False)
          )
          (1): SwitchTransformersLayerCrossAttention(
            (EncDecAttention): SwitchTransformersAttention(
              (q): Linear(in_features=768, out_features=768, bias=False)
              (k): Linear(in_features=768, out_features=768, bias=False)
              (v): Linear(in_features=768, out_features=768, bias=False)
              (o): Linear(in_features=768, out_features=768, bias=False)
            )
            (layer_norm): SwitchTransformersLayerNorm()
            (dropout): Dropout(p=0.1, inplace=False)
          )
          (2): SwitchTransformersLayerFF(
            (mlp): SwitchTransformersSparseMLP(
              (router): SwitchTransformersTop1Router(
                (classifier): Linear(in_features=768, out_features=16, bias=False)
              )
              (experts): ModuleDict(
                (expert_0): SwitchTransformersDenseActDense(
                  (wi): Linear(in_features=768, out_features=3072, bias=False)
                  (wo): Linear(in_features=3072, out_features=768, bias=False)
                  (dropout): Dropout(p=0.1, inplace=False)
                  (act): ReLU()
                )
                (expert_1): SwitchTransformersDenseActDense(
                  (wi): Linear(in_features=768, out_features=3072, bias=False)
                  (wo): Linear(in_features=3072, out_features=768, bias=False)
                  (dropout): Dropout(p=0.1, inplace=False)
                  (act): ReLU()
                )
                (expert_2): SwitchTransformersDenseActDense(
                  (wi): Linear(in_features=768, out_features=3072, bias=False)
                  (wo): Linear(in_features=3072, out_features=768, bias=False)
                  (dropout): Dropout(p=0.1, inplace=False)
                  (act): ReLU()
                )
                (expert_3): SwitchTransformersDenseActDense(
                  (wi): Linear(in_features=768, out_features=3072, bias=False)
                  (wo): Linear(in_features=3072, out_features=768, bias=False)
                  (dropout): Dropout(p=0.1, inplace=False)
                  (act): ReLU()
                )
                (expert_4): SwitchTransformersDenseActDense(
                  (wi): Linear(in_features=768, out_features=3072, bias=False)
                  (wo): Linear(in_features=3072, out_features=768, bias=False)
                  (dropout): Dropout(p=0.1, inplace=False)
                  (act): ReLU()
                )
                (expert_5): SwitchTransformersDenseActDense(
                  (wi): Linear(in_features=768, out_features=3072, bias=False)
                  (wo): Linear(in_features=3072, out_features=768, bias=False)
                  (dropout): Dropout(p=0.1, inplace=False)
                  (act): ReLU()
                )
                (expert_6): SwitchTransformersDenseActDense(
                  (wi): Linear(in_features=768, out_features=3072, bias=False)
                  (wo): Linear(in_features=3072, out_features=768, bias=False)
                  (dropout): Dropout(p=0.1, inplace=False)
                  (act): ReLU()
                )
                (expert_7): SwitchTransformersDenseActDense(
                  (wi): Linear(in_features=768, out_features=3072, bias=False)
                  (wo): Linear(in_features=3072, out_features=768, bias=False)
                  (dropout): Dropout(p=0.1, inplace=False)
                  (act): ReLU()
                )
                (expert_8): SwitchTransformersDenseActDense(
                  (wi): Linear(in_features=768, out_features=3072, bias=False)
                  (wo): Linear(in_features=3072, out_features=768, bias=False)
                  (dropout): Dropout(p=0.1, inplace=False)
                  (act): ReLU()
                )
                (expert_9): SwitchTransformersDenseActDense(
                  (wi): Linear(in_features=768, out_features=3072, bias=False)
                  (wo): Linear(in_features=3072, out_features=768, bias=False)
                  (dropout): Dropout(p=0.1, inplace=False)
                  (act): ReLU()
                )
                (expert_10): SwitchTransformersDenseActDense(
                  (wi): Linear(in_features=768, out_features=3072, bias=False)
                  (wo): Linear(in_features=3072, out_features=768, bias=False)
                  (dropout): Dropout(p=0.1, inplace=False)
                  (act): ReLU()
                )
                (expert_11): SwitchTransformersDenseActDense(
                  (wi): Linear(in_features=768, out_features=3072, bias=False)
                  (wo): Linear(in_features=3072, out_features=768, bias=False)
                  (dropout): Dropout(p=0.1, inplace=False)
                  (act): ReLU()
                )
                (expert_12): SwitchTransformersDenseActDense(
                  (wi): Linear(in_features=768, out_features=3072, bias=False)
                  (wo): Linear(in_features=3072, out_features=768, bias=False)
                  (dropout): Dropout(p=0.1, inplace=False)
                  (act): ReLU()
                )
                (expert_13): SwitchTransformersDenseActDense(
                  (wi): Linear(in_features=768, out_features=3072, bias=False)
                  (wo): Linear(in_features=3072, out_features=768, bias=False)
                  (dropout): Dropout(p=0.1, inplace=False)
                  (act): ReLU()
                )
                (expert_14): SwitchTransformersDenseActDense(
                  (wi): Linear(in_features=768, out_features=3072, bias=False)
                  (wo): Linear(in_features=3072, out_features=768, bias=False)
                  (dropout): Dropout(p=0.1, inplace=False)
                  (act): ReLU()
                )
                (expert_15): SwitchTransformersDenseActDense(
                  (wi): Linear(in_features=768, out_features=3072, bias=False)
                  (wo): Linear(in_features=3072, out_features=768, bias=False)
                  (dropout): Dropout(p=0.1, inplace=False)
                  (act): ReLU()
                )
              )
            )
            (layer_norm): SwitchTransformersLayerNorm()
            (dropout): Dropout(p=0.1, inplace=False)
          )
        )
      )
      (4): SwitchTransformersBlock(
        (layer): ModuleList(
          (0): SwitchTransformersLayerSelfAttention(
            (SelfAttention): SwitchTransformersAttention(
              (q): Linear(in_features=768, out_features=768, bias=False)
              (k): Linear(in_features=768, out_features=768, bias=False)
              (v): Linear(in_features=768, out_features=768, bias=False)
              (o): Linear(in_features=768, out_features=768, bias=False)
            )
            (layer_norm): SwitchTransformersLayerNorm()
            (dropout): Dropout(p=0.1, inplace=False)
          )
          (1): SwitchTransformersLayerCrossAttention(
            (EncDecAttention): SwitchTransformersAttention(
              (q): Linear(in_features=768, out_features=768, bias=False)
              (k): Linear(in_features=768, out_features=768, bias=False)
              (v): Linear(in_features=768, out_features=768, bias=False)
              (o): Linear(in_features=768, out_features=768, bias=False)
            )
            (layer_norm): SwitchTransformersLayerNorm()
            (dropout): Dropout(p=0.1, inplace=False)
          )
          (2): SwitchTransformersLayerFF(
            (mlp): SwitchTransformersDenseActDense(
              (wi): Linear(in_features=768, out_features=3072, bias=False)
              (wo): Linear(in_features=3072, out_features=768, bias=False)
              (dropout): Dropout(p=0.1, inplace=False)
              (act): ReLU()
            )
            (layer_norm): SwitchTransformersLayerNorm()
            (dropout): Dropout(p=0.1, inplace=False)
          )
        )
      )
      (5): SwitchTransformersBlock(
        (layer): ModuleList(
          (0): SwitchTransformersLayerSelfAttention(
            (SelfAttention): SwitchTransformersAttention(
              (q): Linear(in_features=768, out_features=768, bias=False)
              (k): Linear(in_features=768, out_features=768, bias=False)
              (v): Linear(in_features=768, out_features=768, bias=False)
              (o): Linear(in_features=768, out_features=768, bias=False)
            )
            (layer_norm): SwitchTransformersLayerNorm()
            (dropout): Dropout(p=0.1, inplace=False)
          )
          (1): SwitchTransformersLayerCrossAttention(
            (EncDecAttention): SwitchTransformersAttention(
              (q): Linear(in_features=768, out_features=768, bias=False)
              (k): Linear(in_features=768, out_features=768, bias=False)
              (v): Linear(in_features=768, out_features=768, bias=False)
              (o): Linear(in_features=768, out_features=768, bias=False)
            )
            (layer_norm): SwitchTransformersLayerNorm()
            (dropout): Dropout(p=0.1, inplace=False)
          )
          (2): SwitchTransformersLayerFF(
            (mlp): SwitchTransformersSparseMLP(
              (router): SwitchTransformersTop1Router(
                (classifier): Linear(in_features=768, out_features=16, bias=False)
              )
              (experts): ModuleDict(
                (expert_0): SwitchTransformersDenseActDense(
                  (wi): Linear(in_features=768, out_features=3072, bias=False)
                  (wo): Linear(in_features=3072, out_features=768, bias=False)
                  (dropout): Dropout(p=0.1, inplace=False)
                  (act): ReLU()
                )
                (expert_1): SwitchTransformersDenseActDense(
                  (wi): Linear(in_features=768, out_features=3072, bias=False)
                  (wo): Linear(in_features=3072, out_features=768, bias=False)
                  (dropout): Dropout(p=0.1, inplace=False)
                  (act): ReLU()
                )
                (expert_2): SwitchTransformersDenseActDense(
                  (wi): Linear(in_features=768, out_features=3072, bias=False)
                  (wo): Linear(in_features=3072, out_features=768, bias=False)
                  (dropout): Dropout(p=0.1, inplace=False)
                  (act): ReLU()
                )
                (expert_3): SwitchTransformersDenseActDense(
                  (wi): Linear(in_features=768, out_features=3072, bias=False)
                  (wo): Linear(in_features=3072, out_features=768, bias=False)
                  (dropout): Dropout(p=0.1, inplace=False)
                  (act): ReLU()
                )
                (expert_4): SwitchTransformersDenseActDense(
                  (wi): Linear(in_features=768, out_features=3072, bias=False)
                  (wo): Linear(in_features=3072, out_features=768, bias=False)
                  (dropout): Dropout(p=0.1, inplace=False)
                  (act): ReLU()
                )
                (expert_5): SwitchTransformersDenseActDense(
                  (wi): Linear(in_features=768, out_features=3072, bias=False)
                  (wo): Linear(in_features=3072, out_features=768, bias=False)
                  (dropout): Dropout(p=0.1, inplace=False)
                  (act): ReLU()
                )
                (expert_6): SwitchTransformersDenseActDense(
                  (wi): Linear(in_features=768, out_features=3072, bias=False)
                  (wo): Linear(in_features=3072, out_features=768, bias=False)
                  (dropout): Dropout(p=0.1, inplace=False)
                  (act): ReLU()
                )
                (expert_7): SwitchTransformersDenseActDense(
                  (wi): Linear(in_features=768, out_features=3072, bias=False)
                  (wo): Linear(in_features=3072, out_features=768, bias=False)
                  (dropout): Dropout(p=0.1, inplace=False)
                  (act): ReLU()
                )
                (expert_8): SwitchTransformersDenseActDense(
                  (wi): Linear(in_features=768, out_features=3072, bias=False)
                  (wo): Linear(in_features=3072, out_features=768, bias=False)
                  (dropout): Dropout(p=0.1, inplace=False)
                  (act): ReLU()
                )
                (expert_9): SwitchTransformersDenseActDense(
                  (wi): Linear(in_features=768, out_features=3072, bias=False)
                  (wo): Linear(in_features=3072, out_features=768, bias=False)
                  (dropout): Dropout(p=0.1, inplace=False)
                  (act): ReLU()
                )
                (expert_10): SwitchTransformersDenseActDense(
                  (wi): Linear(in_features=768, out_features=3072, bias=False)
                  (wo): Linear(in_features=3072, out_features=768, bias=False)
                  (dropout): Dropout(p=0.1, inplace=False)
                  (act): ReLU()
                )
                (expert_11): SwitchTransformersDenseActDense(
                  (wi): Linear(in_features=768, out_features=3072, bias=False)
                  (wo): Linear(in_features=3072, out_features=768, bias=False)
                  (dropout): Dropout(p=0.1, inplace=False)
                  (act): ReLU()
                )
                (expert_12): SwitchTransformersDenseActDense(
                  (wi): Linear(in_features=768, out_features=3072, bias=False)
                  (wo): Linear(in_features=3072, out_features=768, bias=False)
                  (dropout): Dropout(p=0.1, inplace=False)
                  (act): ReLU()
                )
                (expert_13): SwitchTransformersDenseActDense(
                  (wi): Linear(in_features=768, out_features=3072, bias=False)
                  (wo): Linear(in_features=3072, out_features=768, bias=False)
                  (dropout): Dropout(p=0.1, inplace=False)
                  (act): ReLU()
                )
                (expert_14): SwitchTransformersDenseActDense(
                  (wi): Linear(in_features=768, out_features=3072, bias=False)
                  (wo): Linear(in_features=3072, out_features=768, bias=False)
                  (dropout): Dropout(p=0.1, inplace=False)
                  (act): ReLU()
                )
                (expert_15): SwitchTransformersDenseActDense(
                  (wi): Linear(in_features=768, out_features=3072, bias=False)
                  (wo): Linear(in_features=3072, out_features=768, bias=False)
                  (dropout): Dropout(p=0.1, inplace=False)
                  (act): ReLU()
                )
              )
            )
            (layer_norm): SwitchTransformersLayerNorm()
            (dropout): Dropout(p=0.1, inplace=False)
          )
        )
      )
      (6): SwitchTransformersBlock(
        (layer): ModuleList(
          (0): SwitchTransformersLayerSelfAttention(
            (SelfAttention): SwitchTransformersAttention(
              (q): Linear(in_features=768, out_features=768, bias=False)
              (k): Linear(in_features=768, out_features=768, bias=False)
              (v): Linear(in_features=768, out_features=768, bias=False)
              (o): Linear(in_features=768, out_features=768, bias=False)
            )
            (layer_norm): SwitchTransformersLayerNorm()
            (dropout): Dropout(p=0.1, inplace=False)
          )
          (1): SwitchTransformersLayerCrossAttention(
            (EncDecAttention): SwitchTransformersAttention(
              (q): Linear(in_features=768, out_features=768, bias=False)
              (k): Linear(in_features=768, out_features=768, bias=False)
              (v): Linear(in_features=768, out_features=768, bias=False)
              (o): Linear(in_features=768, out_features=768, bias=False)
            )
            (layer_norm): SwitchTransformersLayerNorm()
            (dropout): Dropout(p=0.1, inplace=False)
          )
          (2): SwitchTransformersLayerFF(
            (mlp): SwitchTransformersDenseActDense(
              (wi): Linear(in_features=768, out_features=3072, bias=False)
              (wo): Linear(in_features=3072, out_features=768, bias=False)
              (dropout): Dropout(p=0.1, inplace=False)
              (act): ReLU()
            )
            (layer_norm): SwitchTransformersLayerNorm()
            (dropout): Dropout(p=0.1, inplace=False)
          )
        )
      )
      (7): SwitchTransformersBlock(
        (layer): ModuleList(
          (0): SwitchTransformersLayerSelfAttention(
            (SelfAttention): SwitchTransformersAttention(
              (q): Linear(in_features=768, out_features=768, bias=False)
              (k): Linear(in_features=768, out_features=768, bias=False)
              (v): Linear(in_features=768, out_features=768, bias=False)
              (o): Linear(in_features=768, out_features=768, bias=False)
            )
            (layer_norm): SwitchTransformersLayerNorm()
            (dropout): Dropout(p=0.1, inplace=False)
          )
          (1): SwitchTransformersLayerCrossAttention(
            (EncDecAttention): SwitchTransformersAttention(
              (q): Linear(in_features=768, out_features=768, bias=False)
              (k): Linear(in_features=768, out_features=768, bias=False)
              (v): Linear(in_features=768, out_features=768, bias=False)
              (o): Linear(in_features=768, out_features=768, bias=False)
            )
            (layer_norm): SwitchTransformersLayerNorm()
            (dropout): Dropout(p=0.1, inplace=False)
          )
          (2): SwitchTransformersLayerFF(
            (mlp): SwitchTransformersSparseMLP(
              (router): SwitchTransformersTop1Router(
                (classifier): Linear(in_features=768, out_features=16, bias=False)
              )
              (experts): ModuleDict(
                (expert_0): SwitchTransformersDenseActDense(
                  (wi): Linear(in_features=768, out_features=3072, bias=False)
                  (wo): Linear(in_features=3072, out_features=768, bias=False)
                  (dropout): Dropout(p=0.1, inplace=False)
                  (act): ReLU()
                )
                (expert_1): SwitchTransformersDenseActDense(
                  (wi): Linear(in_features=768, out_features=3072, bias=False)
                  (wo): Linear(in_features=3072, out_features=768, bias=False)
                  (dropout): Dropout(p=0.1, inplace=False)
                  (act): ReLU()
                )
                (expert_2): SwitchTransformersDenseActDense(
                  (wi): Linear(in_features=768, out_features=3072, bias=False)
                  (wo): Linear(in_features=3072, out_features=768, bias=False)
                  (dropout): Dropout(p=0.1, inplace=False)
                  (act): ReLU()
                )
                (expert_3): SwitchTransformersDenseActDense(
                  (wi): Linear(in_features=768, out_features=3072, bias=False)
                  (wo): Linear(in_features=3072, out_features=768, bias=False)
                  (dropout): Dropout(p=0.1, inplace=False)
                  (act): ReLU()
                )
                (expert_4): SwitchTransformersDenseActDense(
                  (wi): Linear(in_features=768, out_features=3072, bias=False)
                  (wo): Linear(in_features=3072, out_features=768, bias=False)
                  (dropout): Dropout(p=0.1, inplace=False)
                  (act): ReLU()
                )
                (expert_5): SwitchTransformersDenseActDense(
                  (wi): Linear(in_features=768, out_features=3072, bias=False)
                  (wo): Linear(in_features=3072, out_features=768, bias=False)
                  (dropout): Dropout(p=0.1, inplace=False)
                  (act): ReLU()
                )
                (expert_6): SwitchTransformersDenseActDense(
                  (wi): Linear(in_features=768, out_features=3072, bias=False)
                  (wo): Linear(in_features=3072, out_features=768, bias=False)
                  (dropout): Dropout(p=0.1, inplace=False)
                  (act): ReLU()
                )
                (expert_7): SwitchTransformersDenseActDense(
                  (wi): Linear(in_features=768, out_features=3072, bias=False)
                  (wo): Linear(in_features=3072, out_features=768, bias=False)
                  (dropout): Dropout(p=0.1, inplace=False)
                  (act): ReLU()
                )
                (expert_8): SwitchTransformersDenseActDense(
                  (wi): Linear(in_features=768, out_features=3072, bias=False)
                  (wo): Linear(in_features=3072, out_features=768, bias=False)
                  (dropout): Dropout(p=0.1, inplace=False)
                  (act): ReLU()
                )
                (expert_9): SwitchTransformersDenseActDense(
                  (wi): Linear(in_features=768, out_features=3072, bias=False)
                  (wo): Linear(in_features=3072, out_features=768, bias=False)
                  (dropout): Dropout(p=0.1, inplace=False)
                  (act): ReLU()
                )
                (expert_10): SwitchTransformersDenseActDense(
                  (wi): Linear(in_features=768, out_features=3072, bias=False)
                  (wo): Linear(in_features=3072, out_features=768, bias=False)
                  (dropout): Dropout(p=0.1, inplace=False)
                  (act): ReLU()
                )
                (expert_11): SwitchTransformersDenseActDense(
                  (wi): Linear(in_features=768, out_features=3072, bias=False)
                  (wo): Linear(in_features=3072, out_features=768, bias=False)
                  (dropout): Dropout(p=0.1, inplace=False)
                  (act): ReLU()
                )
                (expert_12): SwitchTransformersDenseActDense(
                  (wi): Linear(in_features=768, out_features=3072, bias=False)
                  (wo): Linear(in_features=3072, out_features=768, bias=False)
                  (dropout): Dropout(p=0.1, inplace=False)
                  (act): ReLU()
                )
                (expert_13): SwitchTransformersDenseActDense(
                  (wi): Linear(in_features=768, out_features=3072, bias=False)
                  (wo): Linear(in_features=3072, out_features=768, bias=False)
                  (dropout): Dropout(p=0.1, inplace=False)
                  (act): ReLU()
                )
                (expert_14): SwitchTransformersDenseActDense(
                  (wi): Linear(in_features=768, out_features=3072, bias=False)
                  (wo): Linear(in_features=3072, out_features=768, bias=False)
                  (dropout): Dropout(p=0.1, inplace=False)
                  (act): ReLU()
                )
                (expert_15): SwitchTransformersDenseActDense(
                  (wi): Linear(in_features=768, out_features=3072, bias=False)
                  (wo): Linear(in_features=3072, out_features=768, bias=False)
                  (dropout): Dropout(p=0.1, inplace=False)
                  (act): ReLU()
                )
              )
            )
            (layer_norm): SwitchTransformersLayerNorm()
            (dropout): Dropout(p=0.1, inplace=False)
          )
        )
      )
      (8): SwitchTransformersBlock(
        (layer): ModuleList(
          (0): SwitchTransformersLayerSelfAttention(
            (SelfAttention): SwitchTransformersAttention(
              (q): Linear(in_features=768, out_features=768, bias=False)
              (k): Linear(in_features=768, out_features=768, bias=False)
              (v): Linear(in_features=768, out_features=768, bias=False)
              (o): Linear(in_features=768, out_features=768, bias=False)
            )
            (layer_norm): SwitchTransformersLayerNorm()
            (dropout): Dropout(p=0.1, inplace=False)
          )
          (1): SwitchTransformersLayerCrossAttention(
            (EncDecAttention): SwitchTransformersAttention(
              (q): Linear(in_features=768, out_features=768, bias=False)
              (k): Linear(in_features=768, out_features=768, bias=False)
              (v): Linear(in_features=768, out_features=768, bias=False)
              (o): Linear(in_features=768, out_features=768, bias=False)
            )
            (layer_norm): SwitchTransformersLayerNorm()
            (dropout): Dropout(p=0.1, inplace=False)
          )
          (2): SwitchTransformersLayerFF(
            (mlp): SwitchTransformersDenseActDense(
              (wi): Linear(in_features=768, out_features=3072, bias=False)
              (wo): Linear(in_features=3072, out_features=768, bias=False)
              (dropout): Dropout(p=0.1, inplace=False)
              (act): ReLU()
            )
            (layer_norm): SwitchTransformersLayerNorm()
            (dropout): Dropout(p=0.1, inplace=False)
          )
        )
      )
      (9): SwitchTransformersBlock(
        (layer): ModuleList(
          (0): SwitchTransformersLayerSelfAttention(
            (SelfAttention): SwitchTransformersAttention(
              (q): Linear(in_features=768, out_features=768, bias=False)
              (k): Linear(in_features=768, out_features=768, bias=False)
              (v): Linear(in_features=768, out_features=768, bias=False)
              (o): Linear(in_features=768, out_features=768, bias=False)
            )
            (layer_norm): SwitchTransformersLayerNorm()
            (dropout): Dropout(p=0.1, inplace=False)
          )
          (1): SwitchTransformersLayerCrossAttention(
            (EncDecAttention): SwitchTransformersAttention(
              (q): Linear(in_features=768, out_features=768, bias=False)
              (k): Linear(in_features=768, out_features=768, bias=False)
              (v): Linear(in_features=768, out_features=768, bias=False)
              (o): Linear(in_features=768, out_features=768, bias=False)
            )
            (layer_norm): SwitchTransformersLayerNorm()
            (dropout): Dropout(p=0.1, inplace=False)
          )
          (2): SwitchTransformersLayerFF(
            (mlp): SwitchTransformersSparseMLP(
              (router): SwitchTransformersTop1Router(
                (classifier): Linear(in_features=768, out_features=16, bias=False)
              )
              (experts): ModuleDict(
                (expert_0): SwitchTransformersDenseActDense(
                  (wi): Linear(in_features=768, out_features=3072, bias=False)
                  (wo): Linear(in_features=3072, out_features=768, bias=False)
                  (dropout): Dropout(p=0.1, inplace=False)
                  (act): ReLU()
                )
                (expert_1): SwitchTransformersDenseActDense(
                  (wi): Linear(in_features=768, out_features=3072, bias=False)
                  (wo): Linear(in_features=3072, out_features=768, bias=False)
                  (dropout): Dropout(p=0.1, inplace=False)
                  (act): ReLU()
                )
                (expert_2): SwitchTransformersDenseActDense(
                  (wi): Linear(in_features=768, out_features=3072, bias=False)
                  (wo): Linear(in_features=3072, out_features=768, bias=False)
                  (dropout): Dropout(p=0.1, inplace=False)
                  (act): ReLU()
                )
                (expert_3): SwitchTransformersDenseActDense(
                  (wi): Linear(in_features=768, out_features=3072, bias=False)
                  (wo): Linear(in_features=3072, out_features=768, bias=False)
                  (dropout): Dropout(p=0.1, inplace=False)
                  (act): ReLU()
                )
                (expert_4): SwitchTransformersDenseActDense(
                  (wi): Linear(in_features=768, out_features=3072, bias=False)
                  (wo): Linear(in_features=3072, out_features=768, bias=False)
                  (dropout): Dropout(p=0.1, inplace=False)
                  (act): ReLU()
                )
                (expert_5): SwitchTransformersDenseActDense(
                  (wi): Linear(in_features=768, out_features=3072, bias=False)
                  (wo): Linear(in_features=3072, out_features=768, bias=False)
                  (dropout): Dropout(p=0.1, inplace=False)
                  (act): ReLU()
                )
                (expert_6): SwitchTransformersDenseActDense(
                  (wi): Linear(in_features=768, out_features=3072, bias=False)
                  (wo): Linear(in_features=3072, out_features=768, bias=False)
                  (dropout): Dropout(p=0.1, inplace=False)
                  (act): ReLU()
                )
                (expert_7): SwitchTransformersDenseActDense(
                  (wi): Linear(in_features=768, out_features=3072, bias=False)
                  (wo): Linear(in_features=3072, out_features=768, bias=False)
                  (dropout): Dropout(p=0.1, inplace=False)
                  (act): ReLU()
                )
                (expert_8): SwitchTransformersDenseActDense(
                  (wi): Linear(in_features=768, out_features=3072, bias=False)
                  (wo): Linear(in_features=3072, out_features=768, bias=False)
                  (dropout): Dropout(p=0.1, inplace=False)
                  (act): ReLU()
                )
                (expert_9): SwitchTransformersDenseActDense(
                  (wi): Linear(in_features=768, out_features=3072, bias=False)
                  (wo): Linear(in_features=3072, out_features=768, bias=False)
                  (dropout): Dropout(p=0.1, inplace=False)
                  (act): ReLU()
                )
                (expert_10): SwitchTransformersDenseActDense(
                  (wi): Linear(in_features=768, out_features=3072, bias=False)
                  (wo): Linear(in_features=3072, out_features=768, bias=False)
                  (dropout): Dropout(p=0.1, inplace=False)
                  (act): ReLU()
                )
                (expert_11): SwitchTransformersDenseActDense(
                  (wi): Linear(in_features=768, out_features=3072, bias=False)
                  (wo): Linear(in_features=3072, out_features=768, bias=False)
                  (dropout): Dropout(p=0.1, inplace=False)
                  (act): ReLU()
                )
                (expert_12): SwitchTransformersDenseActDense(
                  (wi): Linear(in_features=768, out_features=3072, bias=False)
                  (wo): Linear(in_features=3072, out_features=768, bias=False)
                  (dropout): Dropout(p=0.1, inplace=False)
                  (act): ReLU()
                )
                (expert_13): SwitchTransformersDenseActDense(
                  (wi): Linear(in_features=768, out_features=3072, bias=False)
                  (wo): Linear(in_features=3072, out_features=768, bias=False)
                  (dropout): Dropout(p=0.1, inplace=False)
                  (act): ReLU()
                )
                (expert_14): SwitchTransformersDenseActDense(
                  (wi): Linear(in_features=768, out_features=3072, bias=False)
                  (wo): Linear(in_features=3072, out_features=768, bias=False)
                  (dropout): Dropout(p=0.1, inplace=False)
                  (act): ReLU()
                )
                (expert_15): SwitchTransformersDenseActDense(
                  (wi): Linear(in_features=768, out_features=3072, bias=False)
                  (wo): Linear(in_features=3072, out_features=768, bias=False)
                  (dropout): Dropout(p=0.1, inplace=False)
                  (act): ReLU()
                )
              )
            )
            (layer_norm): SwitchTransformersLayerNorm()
            (dropout): Dropout(p=0.1, inplace=False)
          )
        )
      )
      (10): SwitchTransformersBlock(
        (layer): ModuleList(
          (0): SwitchTransformersLayerSelfAttention(
            (SelfAttention): SwitchTransformersAttention(
              (q): Linear(in_features=768, out_features=768, bias=False)
              (k): Linear(in_features=768, out_features=768, bias=False)
              (v): Linear(in_features=768, out_features=768, bias=False)
              (o): Linear(in_features=768, out_features=768, bias=False)
            )
            (layer_norm): SwitchTransformersLayerNorm()
            (dropout): Dropout(p=0.1, inplace=False)
          )
          (1): SwitchTransformersLayerCrossAttention(
            (EncDecAttention): SwitchTransformersAttention(
              (q): Linear(in_features=768, out_features=768, bias=False)
              (k): Linear(in_features=768, out_features=768, bias=False)
              (v): Linear(in_features=768, out_features=768, bias=False)
              (o): Linear(in_features=768, out_features=768, bias=False)
            )
            (layer_norm): SwitchTransformersLayerNorm()
            (dropout): Dropout(p=0.1, inplace=False)
          )
          (2): SwitchTransformersLayerFF(
            (mlp): SwitchTransformersDenseActDense(
              (wi): Linear(in_features=768, out_features=3072, bias=False)
              (wo): Linear(in_features=3072, out_features=768, bias=False)
              (dropout): Dropout(p=0.1, inplace=False)
              (act): ReLU()
            )
            (layer_norm): SwitchTransformersLayerNorm()
            (dropout): Dropout(p=0.1, inplace=False)
          )
        )
      )
      (11): SwitchTransformersBlock(
        (layer): ModuleList(
          (0): SwitchTransformersLayerSelfAttention(
            (SelfAttention): SwitchTransformersAttention(
              (q): Linear(in_features=768, out_features=768, bias=False)
              (k): Linear(in_features=768, out_features=768, bias=False)
              (v): Linear(in_features=768, out_features=768, bias=False)
              (o): Linear(in_features=768, out_features=768, bias=False)
            )
            (layer_norm): SwitchTransformersLayerNorm()
            (dropout): Dropout(p=0.1, inplace=False)
          )
          (1): SwitchTransformersLayerCrossAttention(
            (EncDecAttention): SwitchTransformersAttention(
              (q): Linear(in_features=768, out_features=768, bias=False)
              (k): Linear(in_features=768, out_features=768, bias=False)
              (v): Linear(in_features=768, out_features=768, bias=False)
              (o): Linear(in_features=768, out_features=768, bias=False)
            )
            (layer_norm): SwitchTransformersLayerNorm()
            (dropout): Dropout(p=0.1, inplace=False)
          )
          (2): SwitchTransformersLayerFF(
            (mlp): SwitchTransformersSparseMLP(
              (router): SwitchTransformersTop1Router(
                (classifier): Linear(in_features=768, out_features=16, bias=False)
              )
              (experts): ModuleDict(
                (expert_0): SwitchTransformersDenseActDense(
                  (wi): Linear(in_features=768, out_features=3072, bias=False)
                  (wo): Linear(in_features=3072, out_features=768, bias=False)
                  (dropout): Dropout(p=0.1, inplace=False)
                  (act): ReLU()
                )
                (expert_1): SwitchTransformersDenseActDense(
                  (wi): Linear(in_features=768, out_features=3072, bias=False)
                  (wo): Linear(in_features=3072, out_features=768, bias=False)
                  (dropout): Dropout(p=0.1, inplace=False)
                  (act): ReLU()
                )
                (expert_2): SwitchTransformersDenseActDense(
                  (wi): Linear(in_features=768, out_features=3072, bias=False)
                  (wo): Linear(in_features=3072, out_features=768, bias=False)
                  (dropout): Dropout(p=0.1, inplace=False)
                  (act): ReLU()
                )
                (expert_3): SwitchTransformersDenseActDense(
                  (wi): Linear(in_features=768, out_features=3072, bias=False)
                  (wo): Linear(in_features=3072, out_features=768, bias=False)
                  (dropout): Dropout(p=0.1, inplace=False)
                  (act): ReLU()
                )
                (expert_4): SwitchTransformersDenseActDense(
                  (wi): Linear(in_features=768, out_features=3072, bias=False)
                  (wo): Linear(in_features=3072, out_features=768, bias=False)
                  (dropout): Dropout(p=0.1, inplace=False)
                  (act): ReLU()
                )
                (expert_5): SwitchTransformersDenseActDense(
                  (wi): Linear(in_features=768, out_features=3072, bias=False)
                  (wo): Linear(in_features=3072, out_features=768, bias=False)
                  (dropout): Dropout(p=0.1, inplace=False)
                  (act): ReLU()
                )
                (expert_6): SwitchTransformersDenseActDense(
                  (wi): Linear(in_features=768, out_features=3072, bias=False)
                  (wo): Linear(in_features=3072, out_features=768, bias=False)
                  (dropout): Dropout(p=0.1, inplace=False)
                  (act): ReLU()
                )
                (expert_7): SwitchTransformersDenseActDense(
                  (wi): Linear(in_features=768, out_features=3072, bias=False)
                  (wo): Linear(in_features=3072, out_features=768, bias=False)
                  (dropout): Dropout(p=0.1, inplace=False)
                  (act): ReLU()
                )
                (expert_8): SwitchTransformersDenseActDense(
                  (wi): Linear(in_features=768, out_features=3072, bias=False)
                  (wo): Linear(in_features=3072, out_features=768, bias=False)
                  (dropout): Dropout(p=0.1, inplace=False)
                  (act): ReLU()
                )
                (expert_9): SwitchTransformersDenseActDense(
                  (wi): Linear(in_features=768, out_features=3072, bias=False)
                  (wo): Linear(in_features=3072, out_features=768, bias=False)
                  (dropout): Dropout(p=0.1, inplace=False)
                  (act): ReLU()
                )
                (expert_10): SwitchTransformersDenseActDense(
                  (wi): Linear(in_features=768, out_features=3072, bias=False)
                  (wo): Linear(in_features=3072, out_features=768, bias=False)
                  (dropout): Dropout(p=0.1, inplace=False)
                  (act): ReLU()
                )
                (expert_11): SwitchTransformersDenseActDense(
                  (wi): Linear(in_features=768, out_features=3072, bias=False)
                  (wo): Linear(in_features=3072, out_features=768, bias=False)
                  (dropout): Dropout(p=0.1, inplace=False)
                  (act): ReLU()
                )
                (expert_12): SwitchTransformersDenseActDense(
                  (wi): Linear(in_features=768, out_features=3072, bias=False)
                  (wo): Linear(in_features=3072, out_features=768, bias=False)
                  (dropout): Dropout(p=0.1, inplace=False)
                  (act): ReLU()
                )
                (expert_13): SwitchTransformersDenseActDense(
                  (wi): Linear(in_features=768, out_features=3072, bias=False)
                  (wo): Linear(in_features=3072, out_features=768, bias=False)
                  (dropout): Dropout(p=0.1, inplace=False)
                  (act): ReLU()
                )
                (expert_14): SwitchTransformersDenseActDense(
                  (wi): Linear(in_features=768, out_features=3072, bias=False)
                  (wo): Linear(in_features=3072, out_features=768, bias=False)
                  (dropout): Dropout(p=0.1, inplace=False)
                  (act): ReLU()
                )
                (expert_15): SwitchTransformersDenseActDense(
                  (wi): Linear(in_features=768, out_features=3072, bias=False)
                  (wo): Linear(in_features=3072, out_features=768, bias=False)
                  (dropout): Dropout(p=0.1, inplace=False)
                  (act): ReLU()
                )
              )
            )
            (layer_norm): SwitchTransformersLayerNorm()
            (dropout): Dropout(p=0.1, inplace=False)
          )
        )
      )
    )
    (final_layer_norm): SwitchTransformersLayerNorm()
    (dropout): Dropout(p=0.1, inplace=False)
  )
  (lm_head): Linear(in_features=768, out_features=32128, bias=False)
)
[1;34mwandb[0m: 🚀 View run [33mswitch-samsum-base16-run[0m at: [34mhttps://wandb.ai/isnlp_lab/samsum-google-switch-base-16/runs/gemd84h6[0m
[1;34mwandb[0m: Find logs at: [1;35mwandb/run-20250221_134745-gemd84h6/logs[0m
wandb: Using wandb-core as the SDK backend. Please refer to https://wandb.me/wandb-core for more information.
wandb: Currently logged in as: gyunyeop (isnlp_lab). Use `wandb login --relogin` to force relogin
…
